brain_tumor_model.pth (torch, 638937 bytes, 8 tensors)

conv1.weight f4 [32, 3, 3, 3]
-0.16269252 -0.022409467 -0.13401048 -0.043582384 0.07940747 -0.1658434 -0.16498412 -0.14872147
-0.097977 -0.120396726 0.050147355 0.056570973 -0.0060074115 0.10116472 -0.10126965 0.0868046
-0.051401116 -0.092535175 0.17340922 0.16266413 -0.11729284 -0.035269722 -0.14801435 -0.14407858
0.1589323 0.023703238 -0.03961901 0.0329685 -0.15050834 0.011956 0.17408161 0.13270354
-0.18633816 -0.003115504 -0.06617512 0.05560164 0.15597388 -0.009420749 0.1336979 -0.041162297
0.06480667 0.12570892 -0.010815759 0.0035384821 -0.16796567 -0.17861441 0.16422307 0.044192385
-0.101547904 -0.007467839 0.114150204 0.033243075 -0.07442741 -0.12868232 -0.1575375 -0.15802486
-0.005034666 -0.09069126 0.015370462 -0.11913744 -0.118296176 0.059157256 0.1868643 -0.015914405
-0.125541 -0.011752831 0.13518375 -0.019581908 0.15506697 0.15953247 -0.16000207 0.04464296
-0.020208407 -0.09000183 -0.056797095 0.06263554 0.011876743 0.18024041 0.0046916613 -0.09260952
-0.11193093 -0.16780785 0.15088934 -0.018036345 0.101086676 0.04742154 -0.08737211 -0.026536085
-0.106587686 0.007542927 0.05461011 -0.18284297 0.09648239 0.18320198 -0.044526022 0.11767314
-0.11268187 0.051916633 0.019302772 -0.041064076 -0.10988773 0.14984201 -0.16235921 -0.021345451
-0.11503186 0.09445843 0.12377576 -0.10540655 -0.14300554 -0.13254093 -0.1555009 0.06802605
0.084708594 0.12309637 0.08722292 0.02171993 -0.053920545 0.10055917 0.1420857 0.10709043
0.030456938 -0.09229696 0.120642915 -0.06324743 0.045629084 0.070116326 -0.022070924 0.017845567
-0.14927003 -0.16330983 -0.1600478 -0.08930649 -0.09724213 -0.1580782 0.035511162 -0.052603748
0.105692685 -0.030630928 -0.16449247 -0.16578534 0.16411892 0.16659401 0.120810375 -0.039100576
-0.09887549 0.086982496 -0.16478595 -0.13043003 0.016922368 0.049737845 -0.077830546 0.14160933
-0.13478863 0.06695302 0.096904546 -0.16281131 0.044815596 0.16549012 0.16616428 -0.17890267
0.005539888 0.14414017 -0.12737218 -0.12100785 0.19639553 -0.037133213 -0.07524973 0.080297776
-0.03593538 -0.037946295 0.12899023 -0.12586764 0.13267171 -0.00019918123 0.0014869639 0.11904287
0.028018907 -0.056985587 0.015612351 -0.14817661 -0.13380821 0.18142787 0.15538514 -0.15154774
0.04352112 0.093882725 -0.20902096 0.14555278 0.034994733 0.07154099 0.02912687 -0.0790944
0.073551364 -0.023466844 0.024924206 0.16554846 0.017038578 0.001061378 0.14001577 -0.01649553
1.972373e-05 0.11958001 -0.10959824 -0.037023734 -0.13450405 -0.05826966 0.056448743 0.10214274
-0.18085761 0.095187396 -0.001969654 -0.052344266 0.11034203 -0.110341616 0.16821207 -0.13391884
-0.049574405 0.17055337 -0.15272613 -0.046706516 0.2050516 0.1742398 -0.061041173 -0.1437855
0.21155764 -0.052978076 -0.06953336 -0.071024776 -0.08705582 0.105436474 0.14349554 -0.16928825
0.16574365 -0.11815625 0.11630887 -0.05909159 -0.049075935 -0.13082269 -0.08810724 0.061543167
0.11742058 0.12901236 -0.06546852 0.029319292 0.17815265 -0.0042495774 -0.028942855 -0.016911445
0.19171031 -0.15225492 -0.056046408 -0.06774348 0.02580199 0.17620806 0.14133081 -0.14975798
00000000: de98 26be 0f94 b7bc 0b3a 09be 7183 32bd
00000010: 62a0 a23d dad2 29be 99f1 28be 714a 18be
00000020: 2aa8 c8bd 8f92 f6bd 5067 4d3d f7b6 673d
00000030: d2d9 c4bb 732f cf3d 7666 cfbd 9cc6 b13d
00000040: fa89 52bd 1583 bdbd 3092 313e 6d91 263e
00000050: 3a37 f0bd fc76 10bd 1391 17be 5689 13be
00000060: 26bf 223e 4b2d c23c 8b47 22bd fa09 073d
00000070: dc1e 1abe 19e3 433c 7342 323e 70e3 073e
00000080: 6ecf 3ebe 7c2d 4cbb d286 87bd 8cbe 633d
00000090: 9eb7 1f3e 7c59 1abc 1ae8 083e cc99 28bd
000000a0: 5cb9 843d d7b9 003e 9534 31bc e1e5 673b
000000b0: 31ff 2bbe b2e6 36be 182a 283e 1303 353d
000000c0: 59f8 cfbd c6b4 f4bb 95c7 e93d e429 083d
000000d0: 666d 98bd 4cc5 03be 8351 21be 45d1 21be
000000e0: d7f9 a4bb 57bc b9bd 64d4 7b3c 55fe f3bd
000000f0: 4445 f2bd e14e 723d 5b59 3f3e ed5e 82bc
00000100: d28d 00be f28e 40bc 9c6d 0a3e 3d6a a0bc
00000110: e0c9 1e3e 7b5c 233e 95d7 23be 89db 363d
00000120: 1a8c a5bc e152 b8bd 12a4 68bd 1047 803d
00000130: ac96 423c f190 383e 82bc 993b 0faa bdbd
00000140: 0b3c e5bd d2d5 2bbe bc82 1a3e f5c0 93bc
00000150: 8806 cf3d 173d 423d 26f0 b2bd 3462 d9bc
00000160: a54a dabd a82a f73b daae 5f3d 303b 3bbe
00000170: 8f98 c53d 4d99 3b3e eb60 36bd 9dfe f03d
00000180: c1c5 e6bd 89a6 543d d920 9e3c ce32 28bd
00000190: d10c e1bd 2f70 193e 7e41 26be a8dc aebc
000001a0: d395 ebbd 6c73 c13d 257e fd3d 64df d7bd
000001b0: 0b70 12be cfb8 07be a13b 1fbe 3e51 8b3d
000001c0: b37b ad3d f319 fc3d eea1 b23d ffed b13c
000001d0: cadb 5cbd f7f1 cd3d ea7e 113e 3a52 db3d
000001e0: d480 f93c 3006 bdbd a213 f73d de87 81bd
000001f0: 90e5 3a3d 2699 8f3d 15ce b4bc de30 923c
00000200: 3eda 18be b13a 27be 92e3 23be 52e6 b6bd
00000210: e226 c7bd 40df 21be 2774 113d 0777 57bd
00000220: 6875 d83d b6ed fabc b770 28be a2c3 29be
00000230: ca0e 283e 9f97 2a3e 6e6b f73d ed27 20bd
00000240: 3c7f cabd e123 b23d a6bd 28be 738f 05be
00000250: c7a0 8a3c e9b9 4b3d 9f65 9fbd 0902 113e
00000260: 0806 0abe aa1e 893d e475 c63d 02b8 26be
00000270: 8f90 373d 3e76 293e f826 2a3e 4332 37be
00000280: f387 b53b 7b99 133e da6d 02be f7d2 f7bd
00000290: e91b 493e ff18 18bd 881c 9abd 2973 a43d
000002a0: fa30 13bd 936d 1bbd 0416 043e 72e3 00be
000002b0: 18db 073e 4edb 50b9 3be6 c23a c0cc f33d
000002c0: e887 e53c b869 69bd f2ca 7f3c 9cbb 17be
000002d0: 0505 09be 3ac8 393e 481d 1f3e 552f 1bbe
000002e0: 3443 323d 9645 c03d 9709 56be ca0b 153e
000002f0: a356 0f3d 1584 923d 799b ee3c 3ffc a1bd
00000300: 19a2 963d 8a3d c0bc d92d cc3c 8985 293e
00000310: 7d94 8b3c f01d 8b3a 4b60 0f3e a221 87bc
00000320: 6374 a537 5de6 f43d 0b75 e0bd 33a6 17bd
00000330: 6ebb 09be 2bac 6ebd cc36 673d 3630 d13d
00000340: bd32 39be 9cf1 c23d 5015 01bb f166 56bd
00000350: 01fb e13d c9fa e1bd c93f 2c3e 0522 09be
00000360: 880e 4bbd 8ba5 2e3e 3d64 1cbe 554f 3fbd
00000370: 0cf9 513e eb6b 323e 4f06 7abd 823c 13be
00000380: 91a2 583e 8aff 58bd 8267 8ebd 7075 91bd
00000390: 524a b2bd 14ef d73d 7ff0 123e e659 2dbe
000003a0: b4b8 293e e7fb f1bd 5833 ee3d 060a 72bd
000003b0: d903 49bd 62f6 05be 9271 b4bd b014 7c3d
000003c0: 337a f03d d11b 043e 5c14 86bd 032f f03c
000003d0: a66d 363e 0a40 8bbb 9119 edbc df89 8abc
000003e0: b54f 443e b7e8 1bbe eb90 65bd 18bd 8abd
000003f0: b25e d33c e36f 343e 06b9 103e 285a 19be

conv1.bias f4 [32]
-0.07046115 0.03735823 -0.13393493 0.06624316 0.05566681 0.0020342679 0.037396796 0.16368364
0.12038003 0.1509118 -0.04266503 -0.021367915 -0.15074825 -0.10958975 0.1608706 0.051663492
-0.122616835 -0.03705956 0.039471053 -0.050617047 -0.09188834 0.056059502 -0.008194849 0.04821157
-0.12351427 -0.03833638 0.114903264 -0.06299324 0.13229567 0.023815785 -0.20154767 -0.03977492
00000000: ef4d 90bd f204 193d 3d26 09be 7eaa 873d
00000010: e202 643d 5a51 053b 622d 193d af9c 273e
00000020: ce89 f63d 9f88 1a3e 87c1 2ebd c40b afbc
00000030: c05d 1abe 9770 e0bd 43bb 243e 199d 533d
00000040: 891e fbbd c4cb 17bd 66ac 213d d253 4fbd
00000050: f42f bcbd a69e 653d b043 06bc 7f79 453d
00000060: 0df5 fcbd 9c06 1dbd 6752 eb3d 9a02 81bd
00000070: 8478 073e 5219 c33c 8362 4ebe 07eb 22bd

conv2.weight f4 [64, 32, 3, 3]
-0.001455424 0.007819262 -0.03833918 0.051354237 -0.05995353 0.02203389 -0.05492424 0.003396932
-0.029862974 -0.07176377 -0.017238608 0.049484912 -0.028994707 -0.032947954 -0.035070326 -0.06803429
-0.034783818 -0.04197906 0.010356915 -0.031996377 0.008616937 0.013233027 -0.050155096 0.05187169
-0.011610998 -0.012373802 0.012102645 0.02261158 0.044194844 -0.039785124 -0.056922786 0.052549012
0.04436356 -0.02687229 0.04375763 -0.06582836 0.012168511 0.013420323 0.049229182 0.012119802
-0.059330296 0.046892826 -0.024678392 -0.01944683 -0.041633073 0.02049855 0.04500026 0.042736
-0.03480634 0.007879278 -0.052054 0.018428022 -0.019761847 0.06496805 0.013723967 -0.04367392
0.023562951 0.02144776 -0.0021883172 0.04820748 0.024081059 0.004067585 0.04920306 0.002141041
-0.015283435 0.009852938 0.034193274 -0.02013242 -0.0676993 -0.028602296 -0.05182224 -0.037791684
-0.044107594 0.03177488 0.042550076 0.00965963 -0.0026369302 -0.03822639 -0.049358968 -0.022330716
-0.026695974 -0.0026338242 -0.038755022 0.0036208718 0.009228845 -0.032704826 0.037711408 0.027099278
-0.014617643 0.028804729 0.01931955 0.011660495 -0.04528874 0.018669702 0.030062687 0.05070595
-0.015498853 -0.024681766 0.048711747 0.010494387 0.00041382678 0.033068467 -0.007290497 0.03078215
0.008066003 0.032443333 -0.029411912 0.00025725173 -0.009395268 0.04988037 -0.036974683 -0.042023953
-0.036655653 0.008683145 -0.03495693 -0.04502363 0.059667937 -0.034796797 -0.029197453 -0.025057347
0.0064424835 -0.038170587 -0.0017118478 -0.03341019 0.04830935 0.008500377 0.02536865 -0.06436517
-0.05658215 0.05208107 -0.0256267 -0.00467909 -0.03618861 -0.05056207 -0.032187287 -0.017933588
-0.041350845 -0.027694836 -0.0067502176 0.022677971 -0.00050776155 -0.039983843 -0.046873707 0.038698904
0.044328738 0.026892828 0.049607515 -0.039011344 -0.0054022814 -0.015412994 -0.03446704 0.020580927
0.008527527 0.011674782 0.008847731 0.048927605 -0.07091554 0.030142182 -0.0009985971 -0.05260447
-0.034544572 0.05252127 0.05410722 0.017213421 -0.018566063 -0.06094782 0.03332707 0.052925985
0.017607726 -0.05417869 0.032953937 0.0418257 -0.0439779 -0.04190664 0.009627854 0.022984618
-0.06009956 -0.052764453 -0.024239222 0.027442988 0.01524163 -0.014553719 -0.01153195 0.05306889
0.02619427 0.03279176 0.03702017 -0.005084924 0.037244957 0.04777652 -0.00051661296 0.011796111
-0.056443483 0.03602574 -0.016998865 0.020562034 -0.024600014 0.010560063 -0.029842002 -0.0149113815
0.038410217 -0.010618158 -0.043559693 0.021408562 0.023329718 0.04375846 -0.043959346 0.005798173
-0.015286716 0.0010800575 0.012337916 -0.017250635 -0.06730484 -0.03233534 -0.04929899 0.008132793
-0.028920522 0.0026665886 0.036928505 -0.051474113 -0.020744672 -0.024920568 -0.005005155 -0.0062239515
0.06006152 0.024166271 0.010981148 0.048803445 -0.0098261535 -0.01568516 -0.037042048 0.005300309
-0.050046366 -0.017255362 0.027696129 -0.040335268 0.033529054 -0.04043082 0.00012551421 0.04044066
-0.030144595 0.03616837 -0.013601957 -0.028648699 -0.029033788 -0.042094745 -0.019745372 -0.007743352
-0.0029090708 -0.026204761 0.02323786 -0.04316695 0.031859066 0.04319773 -0.056478843 0.0064519206
00000000: edc3 beba 5d1c 003c 8b09 1dbd d258 523d
00000010: d591 75bd 6b80 b43c 3df8 60bd 109f 5e3b
00000020: 32a3 f4bc e2f8 92bd fb37 8dbc b1b0 4a3d
00000030: 4f86 edbc 6ff4 06bd e7a5 0fbd 9055 8bbd
00000040: 7a79 0ebd 3cf2 2bbd 0db0 293c a20e 03bd
00000050: 0e2e 0d3c 57cf 583c 6e6f 4dbd 6977 543d
00000060: 0e3c 3ebc 7dbb 4abc 2c4a 463c ec3b b93c
00000070: a705 353d baf5 22bd de27 69bd a23d 573d
00000080: 90b6 353d 4723 dcbc 333b 333d 05d1 86bd
00000090: 6f5e 473c eae0 5b3c 8aa4 493d 2292 463c
000000a0: 5304 73bd b112 403d 572a cabc f54e 9fbc
000000b0: 7187 2abd 93ec a73c 3152 383d f20b 2f3d
000000c0: 1891 0ebd 1618 013c 9336 55bd 5df6 963c
000000d0: 99e3 a1bc f80d 853d 7dda 603c 6de3 32bd
000000e0: 1707 c13c 36b3 af3c df69 0fbb 3575 453d
000000f0: a445 c53c 6049 853b 2689 493d b550 0c3b
00000100: 5f67 7abc 386e 213c 3f0e 0c3d bfec a4bc
00000110: eea5 8abd 5d4f eabc 8f43 54bd 74cb 1abd
00000120: 2aaa 34bd 6026 023d fd48 2e3d 6d43 1e3c
00000130: 59d0 2cbb 4693 1cbd a12c 4abd e8ee b6bc
00000140: 84b1 dabc 3d9c 2cbb 96bd 1ebd 264c 6d3b
00000150: 9534 173c 7ff5 05bd 4777 1a3d 4eff dd3c
00000160: d77e 6fbc e5f7 eb3c 0844 9e3c a90b 3f3c
00000170: b080 39bd 34f1 983c 0646 f63c 0bb1 4f3d
00000180: e7ee 7dbc 6a31 cabc f885 473d a6f0 2b3c
00000190: e4f6 d839 cd72 073d 1fe5 eebb d92a fc3c
000001a0: 4527 043c 4de3 043d 40f1 f0bc bedf 8639
000001b0: 9cee 19bc 5c4f 4c3d c472 17bd 4f21 2cbd
000001c0: 3d24 16bd c043 0e3c ff2e 0fbd b36a 38bd
000001d0: 5e66 743d 1687 0ebd 7f2f efbc 1145 cdbc
000001e0: 781b d33b c358 1cbd 1560 e0ba 20d9 08bd
000001f0: 06e0 453d 2a45 0b3c ead1 cf3c e3d1 83bd
00000200: afc2 67bd f652 553d 16ef d1bc 0d53 99bb
00000210: 823a 14bd 2c1a 4fbd d1d6 03bd 76e9 92bc
00000220: 815f 29bd 48e0 e2bc ee30 ddbb 27c7 b93c
00000230: 4d1b 05ba 19c6 23bd a5fe 3fbd be82 1e3d
00000240: 0d92 353d 594e dc3c 4031 4b3d 5cca 1fbd
00000250: 9f05 b1bb c886 7cbc 502d 0dbd 5599 a83c
00000260: 0ab7 0b3c 9647 3f3c 13f6 103c 5068 483d
00000270: 2b3c 91bd bdec f63c 5ce3 82ba c977 57bd
00000280: 9c7e 0dbd 8b20 573d 889f 5d3d 2903 8d3c
00000290: db17 98bc 6ca4 79bd f781 083d ebc8 583d
000002a0: 143e 903c 79ea 5dbd b5fa 063d 6d51 2b3d
000002b0: 2c22 34bd 4ca6 2bbd 26be 1d3c 3d4a bc3c
000002c0: f52a 76bd 8a1f 58bd 5591 c6bc 1ed0 e03c
000002d0: 08b8 793c b972 6ebc 81f0 3cbc c45e 593d
000002e0: 5e95 d63c a750 063d 76a2 173d 6f9f a6bb
000002f0: 2b8e 183d 50b1 433d 4f6d 07ba 7a44 413c
00000300: 4831 67bd ba8f 133d 3441 8bbc b671 a83c
00000310: f885 c9bc 1d04 2d3c 3777 f4bc de4e 74bc
00000320: 0854 1d3d c8f7 2dbc a66b 32bd 0261 af3c
00000330: f71d bf3c 123c 333d b70e 34bd 9afe bd3b
00000340: 2275 7abc b790 8d3a f824 4a3c 3451 8dbc
00000350: 1fd7 89bd 1072 04bd bded 49bd 683f 053c
00000360: bbea ecbc efc1 2e3b 5842 173d 85d6 52bd
00000370: bbf0 a9bc 3826 ccbc 4902 a4bb 4af2 cbbb
00000380: 1203 763d 58f8 c53c 46ea 333c 1fe6 473d
00000390: e0fd 20bc 2a7e 80bc 67b9 17bd 37ae ad3b
000003a0: 6bfd 4cbd 1e5b 8dbc fee2 e23c 9836 25bd
000003b0: c355 093d ca9a 25bd 779c 0339 1ba5 253d
000003c0: ccf1 f6bc 4925 143d beda 5ebc adb0 eabc
000003d0: 44d8 edbc 8a6b 2cbd 0cc1 a1bc f2bb fdbb
000003e0: 1ca6 3ebb 5eab d6bc 535d be3c d4cf 30bd
000003f0: a77e 023d 1af0 303d 5c56 67bd a26a d33b

conv2.bias f4 [64]
0.024587566 -0.008386057 -0.045877293 0.0095967185 -0.037048355 -0.0048198756 -0.0003876526 0.044592828
0.0377783 0.042644344 -0.05003201 0.028681098 -0.045008015 0.0033750334 -0.025754515 -0.031131607
0.010897201 0.028049123 -0.014810576 -0.011380917 -0.041862268 -0.03374512 0.009067362 -0.047163717
-0.049058635 0.013423147 0.039746124 -0.016981993 0.023213508 -0.04184877 -0.053599965 -0.043068655
-0.024814058 -0.060046665 0.045800373 0.034455452 -0.00643789 0.05453005 0.036230627 -0.061608825
-0.00028644284 -0.041318703 -0.016964387 0.062075056 0.02399851 -0.021472989 -0.027228007 -0.0037269464
-0.035054006 -0.041428216 0.029491823 -0.036303964 -0.010024289 -0.06460583 -0.053304315 -0.06196111
0.029332295 0.019355167 0.024172498 -0.023554912 -0.0450375 0.04944165 0.037565082 0.036002334
00000000: dd6b c93c ac65 09bc d4e9 3bbd 8e3b 1d3c
00000010: 04c0 17bd 0cf0 9dbb da3d cbb9 f8a6 363d
00000020: 6bbd 1a3d d6ab 2e3d 5dee 4cbd 9ff4 ea3c
00000030: 535a 38bd aa2f 5d3b 22fb d2bc b607 ffbc
00000040: 2c8a 323c 46c7 e53c 0fa8 72bc 0777 3abc
00000050: c577 2bbd 5338 0abd 468f 143c be2e 41bd
00000060: b5f1 48bd c2ec 5b3c d5cc 223d d21d 8bbc
00000070: 412a be3c 9e69 2bbd a38b 5bbd c268 30bd
00000080: da46 cbbc 7ef3 75bd 2c99 3b3d 2921 0d3d
00000090: f0f4 d2bb e75a 5f3d 9166 143d 8959 7cbd
000000a0: b52d 96b9 cd3d 29bd e6f8 8abc 6a42 7e3d
000000b0: 8698 c43c 1fe8 afbc 450d dfbc c93f 74bb
000000c0: ca94 0fbd a2b0 29bd d698 f13c 77b3 14bd
000000d0: ea3c 24bc 1050 84bd a055 5abd efca 7dbd
000000e0: 484a f03c ba8e 9e3c 6705 c63c 3bf6 c0bc
000000f0: 3e79 38bd 5483 4a3d d8dd 193d 2f77 133d

conv3.weight f4 [128, 64, 3, 3]
-0.002816632 0.009788994 -0.0477698 0.03434063 -0.04226226 -0.040978573 -0.040034153 -0.037250828
0.0024108328 -0.005603579 0.021406393 -0.051906493 -0.052604437 -0.045229066 -0.01253245 0.011453908
-0.043028265 -0.04347156 -0.048001327 -0.03130745 -0.0052022017 -0.035003264 0.016641514 -0.037901636
-0.042590655 -0.0149955675 0.02196483 0.022894397 -0.046238787 -0.035410184 -0.04799452 -0.019577483
0.009624135 0.015095808 -0.036825147 0.009418415 -0.020738037 -0.022815093 0.009336821 -0.009024776
0.031147774 0.051292982 -0.028778598 -0.01768629 -0.034959696 -0.004343625 0.0019538368 -0.027573079
0.026768934 0.0017486844 -0.041186813 0.0052761915 0.03789262 -0.046045586 -0.022020599 -0.0006158843
-0.003204989 0.01835574 -0.027362047 -0.0037977137 -0.041991845 -0.02311889 0.02174631 0.01984559
0.008028661 -0.0044064084 0.021930186 0.016636431 -0.03572897 0.020802595 -0.043575652 -0.009967339
-0.039904576 0.021544602 0.00069775275 0.01206891 0.006441309 -0.028874146 0.028137024 -0.030592322
0.000748016 -0.03305713 0.017553879 -0.03695951 -0.04083512 -0.052731924 -0.03256944 -0.011994474
-0.0438102 0.015935399 -0.04870897 0.02862244 0.025478603 -0.042865522 0.025830772 -0.02240726
-0.027802147 0.01712018 -0.03354621 -0.035268407 0.02912848 -0.005534205 -0.050211016 -0.033173047
0.015249083 0.012698923 0.0032294742 0.0017630052 -0.0075940033 -0.042886704 0.0038706597 0.019289829
0.024854131 -0.037550587 0.010692611 -0.04328215 0.031741478 0.032091014 -0.036896367 -0.016577426
0.008758341 -0.04294518 0.005970837 -0.008702108 -0.023371305 0.028081676 0.0038414777 -0.01052863
-0.023803152 0.022642925 -0.013984031 -0.021503033 -0.0063756146 0.035860077 0.026524963 -0.041664694
-0.0011996292 0.039606284 -0.03376086 -0.0138635 -0.011274189 -0.0050060414 0.024259325 -0.028884526
-0.016015535 0.0025841326 -0.0052715363 -0.010420167 -0.02082119 0.0078679705 0.016920151 -0.04294804
-0.023809046 0.030313414 -0.024169752 -0.038651973 0.033312127 0.004972384 -0.0075550904 0.027345499
-0.031064406 0.023468906 -0.010630701 -0.03604743 0.02168698 0.020826304 -0.04108522 -0.024068737
0.026168179 -0.044399448 -0.011159256 0.024756424 0.020178566 -0.03999877 0.024147578 -0.03078845
-0.03477503 0.034737706 -0.003992371 -0.038607217 -0.022027345 0.0010715291 0.00039188538 0.017953198
-0.04109699 0.020524856 -0.009685385 -0.027259395 0.0024626965 -0.02897668 0.02348899 -0.024661785
0.018040288 0.031724755 0.026771456 -0.023949917 -0.045787755 0.01645095 -0.00017903635 0.022072796
0.014427544 -0.0052424227 0.0063050594 0.015113215 -0.009332584 -0.035731073 0.030794773 -0.0076354374
0.033480328 -0.0087753115 -0.028913235 -0.02043772 -0.032313183 -0.006060992 -0.023646455 -0.023035767
-0.007990048 0.019452162 -0.018116446 -0.03187209 -0.042711984 -0.031536378 0.026343957 -0.0108592985
-0.029218972 0.038545795 0.031646077 -0.005132124 -0.0028404158 -0.028523121 0.006596415 0.022780294
0.0100797145 -0.009741685 -0.038065124 -0.018442743 0.014913133 -0.04000558 0.016843881 -0.005492947
-0.039656013 -0.0058682202 -0.023710063 -0.053534165 -0.018928707 -0.051396947 0.011034656 -0.030338375
-0.0025849198 0.0019927563 -0.016722802 0.0061655883 0.0024517386 -0.030251987 -0.010712765 -0.03152976
00000000: 3e97 38bb 0462 203c 44aa 43bd c3a8 0c3d
00000010: 311b 2dbd 26d9 27bd dafa 23bd 5394 18bd
00000020: 10ff 1d3b 3a9e b7bb 765c af3c e79b 54bd
00000030: c077 57bd 1d42 39bd e854 4dbc 2ca9 3b3c
00000040: 683e 30bd 3c0f 32bd 0a9d 44bd 3e3c 00bd
00000050: 3b77 aabb 955f 0fbd c953 883c bf3e 1bbd
00000060: 8a73 2ebd f8af 75bc 96ef b33c 088d bb3c
00000070: e264 3dbd 450a 11bd e795 44bd f560 a0bc
00000080: 8cae 1d3c 6854 773c f7d5 16bd b24f 1a3c
00000090: d1e2 a9bc b8e6 babc 77f9 183c a7dc 13bc
000000a0: 9e29 ff3c 9718 523d 18c1 ebbc d7e2 90bc
000000b0: e631 0fbd f854 8ebb f10b 003b f0e0 e1bc
000000c0: 864a db3c 1d34 e53a 81b3 28bd e7e3 ac3b
000000d0: 4b35 1b3d 4c9a 3cbd 8b64 b4bc 4c73 21ba
000000e0: cb0a 52bb c75e 963c 5f26 e0bc 10e3 78bb
000000f0: a4ff 2bbd d463 bdbc 5125 b23c 3893 a23c
00000100: a58a 033c a263 90bb efa6 b33c 2049 883c
00000110: 8a58 12bd 346a aa3c 627c 32bd 0d4e 23bc
00000120: fb72 23bd 4e7e b03c 65e9 363a adbc 453c
00000130: 9e11 d33b 7989 ecbc 9e7f e63c c09c fabc
00000140: 8116 443a ea66 07bd 27cd 8f3c db62 17bd
00000150: ba42 27bd 6efd 57bd 8867 05bd 7884 44bc
00000160: 5372 33bd f48a 823c 0f83 47bd 9b79 ea3c
00000170: 81b8 d03c c293 2fbd 0e9b d33c 6e8f b7bc
00000180: 54c1 e3bc 9f3f 8c3c c067 09bd 9b75 10bd
00000190: da9e ee3c 4758 b5bb 11aa 4dbd 76e0 07bd
000001a0: 4ad7 793c 250f 503c 96a5 533b a314 e73a
000001b0: 1ed7 f8bb f8a9 2fbd e5aa 7d3b b405 9e3c
000001c0: e49a cb3c a5ce 19bd 1030 2f3c a048 31bd
000001d0: 5a03 023d de71 033d a520 17bd 62cd 87bc
000001e0: 257f 0f3c 49e7 2fbd 03a7 c33b 4993 0ebc
000001f0: 2e75 bfbc 8b0b e63c 4dc1 7b3b 4680 2cbc
00000200: d4fe c2bc a87d b93c 471d 65bc 2127 b0bc
00000210: 88ea d0bb 04e2 123d e14a d93c 99a8 2abd
00000220: e03c 9dba 333a 223d d448 0abd bc23 63bc
00000230: 60b7 38bc b809 a4bb 7ebb c63c 3e9f ecbc
00000240: 0333 83bc 8d5a 293b dabc acbb 59b9 2abc
00000250: 3391 aabc a9e8 003c 219c 8a3c 49ea 2fbd
00000260: 300b c3bc d653 f83c a5ff c5bc 8851 1ebd
00000270: 4c72 083d 61ef a23b b190 f7bb ab03 e03c
00000280: c87a febc dd41 c03c 642c 2ebc 78a6 13bd
00000290: e5a8 b13c ed9b aa3c fa48 28bd cd2b c5bc
000002a0: a65e d63c 32dc 35bd 50d5 36bc fccd ca3c
000002b0: 854d a53c c0d5 23bd 24d1 c53c 0f38 fcbc
000002c0: 4370 0ebd 2049 0e3d 6fd2 82bb 9a22 1ebd
000002d0: b172 b4bc 8d72 8c3a f775 cd39 9612 933c
000002e0: 5155 28bd be23 a83c 73af 1ebc 184f dfbc
000002f0: 3165 213b 8160 edbc fb6b c03c 8307 cabc
00000300: 3ac9 933c d1f1 013d d04f db3c 9e32 c4bc
00000310: f18b 3bbd 25c4 863c b4bb 3bb9 02d2 b43c
00000320: 8161 6c3c a1c8 abbb ac9a ce3b 6b9d 773c
00000330: b2e7 18bc bf5a 12bd 5245 fc3c b132 fabb
00000340: ab22 093d 53c6 0fbc 73db ecbc 016d a7bc
00000350: d45a 04bd 499b c6bb 36b6 c1bc 81b5 bcbc
00000360: b1e8 02bc 245a 9f3c f168 94bc 4f8c 02bd
00000370: c3f2 2ebd 4a2c 01bd 48cf d73c 33eb 31bc
00000380: a05c efbc 32e2 1d3d 519f 013d 602b a8bb
00000390: 4526 3abb 52a9 e9bc bd26 d83b bd9d ba3c
000003a0: 6325 253c 979b 1fbc 2dea 1bbd 3c15 97bc
000003b0: 3756 743c e4dc 23bd 2efc 893c 2efe b3bb
000003c0: 586e 22bd 334a c0bb 9b3b c2bc a446 5bbd
000003d0: 6010 9bbc 9b85 52bd b4ca 343c 2f88 f8bc
000003e0: c267 29bb e798 023b 42fe 88bc b408 ca3b
000003f0: 59ad 203b 04d3 f7bc 9884 2fbc 5a25 01bd

conv3.bias f4 [128]
0.0022268032 -0.016509404 0.029078046 -0.040195316 0.012261183 0.014035469 0.013037143 -0.018420119
-0.00714112 0.016021186 0.029699335 0.009830877 -0.025445603 -0.020252537 -0.004026167 0.017870074
0.022434153 -0.0046212426 0.007242461 -0.0048125256 -0.0020401198 -0.021297494 -0.009972331 -0.045499776
-0.010559487 -0.01999331 -0.007757453 0.015233429 -0.003225094 -0.047308307 0.02703043 -0.004423926
0.02382746 -0.0080135325 -0.02666224 -0.0076325987 -0.053516705 -0.027333545 -0.019986687 0.023146791
-0.0012647801 -0.027244635 0.015313704 0.023014747 -0.012897013 0.026907487 0.003501837 -0.046974845
-0.00300031 0.006298143 0.024383347 0.008873919 -0.045194704 0.0013144806 -0.017139006 -0.011361284
0.022242308 0.00026027902 -0.001907269 -0.011309246 -0.037291866 0.027535189 -0.023556083 0.03598276
-0.03724823 -0.021903863 -0.031249724 0.018259324 -0.026409114 -0.00036945764 0.006927215 0.010594692
-0.030667141 0.0028803041 0.021228248 -0.0044572726 0.013031265 -0.004912136 -0.034312997 0.011440799
-0.0010354859 0.016998801 -0.03913001 -0.013013626 0.008077559 -0.03849741 -0.020681083 -0.0445329
-0.02671278 -0.03637834 0.009903428 0.00023338346 0.030378599 -0.042106003 -0.011366782 0.03865735
0.024923543 0.0024012176 -0.012192003 -0.034735963 -0.045492508 -0.020643482 0.020876814 -0.0024393068
-0.010248275 0.027300682 -0.030464306 0.0032502918 0.004061925 -0.03131701 0.04701569 -0.043502085
0.013690694 -0.019051552 0.022269 0.0074630426 0.025837442 0.017779088 -0.0010953305 -0.008848597
-0.011520384 -0.035758093 0.01785706 -0.011984072 -0.051244035 0.028990062 -0.006710681 -0.018265788
00000000: 8fef 113b bb3e 87bc 1535 ee3c d8a3 24bd
00000010: 21e3 483c 06f5 653c be99 553c cae5 96bc
00000020: 0e00 eabb dd3e 833c 054c f33c b011 213c
00000030: 4c73 d0bc a6e8 a5bc f0ed 83bb 4364 923c
00000040: d4c7 b73c cb6d 97bb 2b52 ed3b 64b2 9dbb
00000050: 88b3 05bb 1578 aebc fd62 23bc f95d 3abd
00000060: b301 2dbc 03c9 a3bc 3b32 febb a295 793c
00000070: 195c 53bb 5bc6 41bd ec6e dd3c 95f6 90bb
00000080: ce31 c33c 314b 03bc c56a dabc e11a fabb
00000090: 5534 5bbd 99ea dfbc 1fbb a3bc 579e bd3c
000000a0: fac6 a5ba 2430 dfbc 54e6 7a3c 6c89 bc3c
000000b0: fe4d 53bc 176d dc3c 137f 653b b268 40bd
000000c0: d9a0 44bb a760 ce3b 96bf c73c ea63 113c
000000d0: 151e 39bd a64a ac3a 1a67 8cbc ae24 3abc
000000e0: 8035 b63c 0f76 8839 54fd f9ba 6a4a 39bc
000000f0: 5bbf 18bd 7a91 e13c b0f8 c0bc a962 133d
00000100: 9a91 18bd bb6f b3bc 6cff ffbc 9494 953c
00000110: ed57 d8bc c4b3 c1b9 b1fd e23b 5c95 2d3c
00000120: a839 fbbc 7cc3 3c3b dde6 ad3c 500e 92bb
00000130: 1681 553c fcf5 a0bb c98b 0cbd 3072 3b3c
00000140: 24b9 87ba 1241 8b3c ca46 20bd 1b37 55bc
00000150: bd57 043c 76af 1dbd 606b a9bc 2168 36bd
00000160: c3d4 dabc 7401 15bd fd41 223c 65b8 7439
00000170: 8adc f83c 5877 2cbd bd3b 3abc 2b57 1e3d
00000180: 752c cc3c bf5d 1d3b f8c0 47bc 4c47 0ebd
00000190: 5a56 3abd 851c a9bc da05 ab3c c7dc 1fbb
000001a0: 61e8 27bc aea5 df3c 4890 f9bc d902 553b
000001b0: e619 853b 4446 00bd 8693 403d 3e2f 32bd
000001c0: ef4e 603c 0012 9cbc 7a6d b63c 8a8c f43b
000001d0: 0ba9 d33c 73a5 913c 3191 8fba b5f9 10bc
000001e0: febf 3cbc 1477 12bd f848 923c d758 44bc
000001f0: 44e5 51bd 917c ed3c 46e5 dbbb 22a2 95bc

fc1.weight f4 [2, 32768]
0.0042238752 0.0029516486 0.00651357 -0.00073798705 0.00010317854 0.000388091 0.009092268 -0.000527779
-0.0018261657 0.0062975776 0.003104885 -0.00062737276 0.0005226774 0.00803179 0.0011670633 0.0013144984
0.0058139395 0.004657131 0.00726152 -0.00020108535 0.004441308 0.0069281305 0.009025268 0.00861991
0.006719569 0.0034093664 0.002510344 -0.0007651904 -0.0009113727 -0.00051293906 0.004043715 0.0044642678
0.0064346013 0.0047494182 0.008657065 0.0040002395 0.0066166823 0.0018824374 0.005128383 0.008415666
0.0036922642 0.007120662 0.00096004974 0.0019947968 0.0012761892 0.00973382 0.0045821955 0.0021275887
0.008405346 0.0020463963 0.0016438102 0.007932154 0.0054585193 0.0023871672 0.0023893362 0.0037509627
0.008889608 0.002282164 0.006486352 0.006004147 0.0036566623 0.006497535 0.007349964 -0.00015764164
0.0024191549 0.004557652 0.0028141506 0.0046142973 0.0011862594 0.005089532 0.006052872 0.0039408198
-0.0013789514 -0.0005143005 -0.00040277382 0.007857364 0.006176033 -0.0011841542 0.00261671 0.0012969472
0.0036916817 0.002115659 0.0026860032 0.0034989514 0.008446185 0.0020264655 0.006711271 0.0048631835
0.003612435 0.009398507 0.0012881714 0.0023327651 0.0059195976 0.0064462284 -1.5535716e-05 0.008147923
0.005755142 0.0068003153 0.009002878 0.0057216617 0.002131774 -0.0014103323 0.005498288 0.0019092063
0.007711598 0.00234885 0.002842142 -0.0009481781 0.0069342605 0.0046050767 0.0074424073 -4.5326895e-05
0.0050615687 0.006639171 0.00086192996 0.0078080017 0.006355486 -0.000758766 0.0069928905 0.0003529925
0.004766664 0.0070394636 0.0019199888 0.0017205583 0.0007203401 0.006505363 0.001564685 -0.001493617
0.00469529 0.003967718 0.0017847695 -0.0019334101 0.0018752757 0.0053285123 0.004592109 -0.0012592366
-0.0027453792 -0.0007095827 0.0017280969 0.007474557 -0.0003618172 0.004648266 0.007205987 0.0017374572
0.0054092417 0.008136205 0.007275945 0.0044636345 0.0039742864 0.0035283319 0.009987725 0.009275691
0.007911478 0.0008887732 0.0049075023 0.0005294994 0.003907182 0.008515616 0.0023943766 0.0064497683
0.002959922 0.006833279 0.008902481 0.0005812386 0.008566314 -0.0017375477 0.00044563957 0.0069813496
0.0074585127 0.0007273637 0.008366346 0.0071919067 0.0058294334 -0.0022044745 0.0012866411 0.0049114055
0.0007000427 0.009705249 0.0022263932 -0.0033562933 0.009026781 0.0055020982 0.00574771 0.008976722
-0.002166394 -0.0013553309 0.009623695 0.0019673007 0.00018254989 0.004838971 -0.00079759746 0.00755674
0.0086598145 0.0046822317 0.006095023 -0.0031224657 0.0070153046 0.006008219 0.0073611094 0.0019185753
0.0063354853 0.0077965693 0.009477568 0.0097910995 0.0059853136 0.006264929 0.0038577174 0.003400182
0.0008091922 0.008884515 0.005909151 0.0016019825 0.0014058478 0.007641963 0.0070084995 0.009496596
0.000409052 0.007023765 0.008212016 0.0033901 0.0035663028 -0.0013097953 -0.00087067496 0.008333962
0.0077551743 0.0035787474 0.009287872 0.0035675704 0.005558655 -0.00034710884 0.0029120229 0.002236135
0.006161361 0.0055611623 0.01086039 0.0045622033 0.0013793255 0.006146007 -0.00041416203 0.003376051
0.005619817 -0.00048722635 6.9048e-05 0.00027205172 0.0072165853 0.007365546 0.005488944 0.003406491
-0.003248976 -0.0041179727 -0.0036504362 0.0054925294 0.0046711536 -0.0009627325 0.0011401091 -8.089955e-05
00000000: 6f68 8a3b 7270 413b c96f d53b 7975 41ba
00000010: 8f61 d838 b178 cb39 bcf7 143c a65a 0aba
00000020: f45b efba e95b ce3b 547b 4b3b 4676 24ba
00000030: 4904 093a c597 033c 25f8 983a 3f4b ac3a
00000040: dc82 be3b d99a 983b 0bf2 ed3b 70da 52b9
00000050: 6488 913b 5f05 e33b b8de 133c 863a 0d3c
00000060: d52f dc3b ad6f 5f3b 9584 243b 0f97 48ba
00000070: 30e9 6eba c276 06ba 2481 843b fe48 923b
00000080: 59d9 d23b 02a1 9b3b 5dd6 0d3c 7114 833b
00000090: c1d0 d83b 1ebc f63a ff0b a83b dde1 093c
000000a0: eaf9 713b 7154 e93b d9ab 7b3a 23bb 023b
000000b0: ce45 a73a 9a7a 1f3c 3e26 963b 046f 0b3b
000000c0: 94b6 093c d51c 063b 1e75 d73a def5 013c
000000d0: 61dd b23b 0572 1c3b 6996 1c3b b6d2 753b
000000e0: b8a5 113c 5c90 153b 778b d43b 70be c43b
000000f0: 9da4 6f3b 46e9 d43b f8d7 f03b 9b4c 25b9
00000100: af8a 1e3b 5b58 953b 9d6d 383b 8833 973b
00000110: 437c 9b3a 17c6 a63b 2c57 c63b fe21 813b
00000120: eebd b4ba 1fd2 06ba 632b d3b9 2cbc 003c
00000130: 5260 ca3b 9f35 9bba 1c7d 2b3b 54fe a93a
00000140: 24f0 713b dea6 0a3b a807 303b aa4e 653b
00000150: de61 0a3c 73ce 043b 39ea db3b 575b 9f3b
00000160: 9abe 6c3b 32fc 193c dcd7 a83a 4ee1 183b
00000170: 2ff9 c13b e23a d33b b252 82b7 de7e 053c
00000180: a195 bc3b 2ed5 de3b cf80 133c c77c bb3b
00000190: 3cb5 0b3b e6da b8ba fc2a b43b 553e fa3a
000001a0: 93b1 fc3b 2aef 193b 3b43 3a3b 288f 78ba
000001b0: cb38 e33b 2fe6 963b 70df f33b 621d 3eb8
000001c0: 84db a53b 678d d93b 24f3 613a 44da ff3b
000001d0: ae41 d03b ede7 46ba 9e24 e53b da11 b939
000001e0: ad31 9c3b 4dab e63b 22a8 fb3a 5b84 e13a
000001f0: 35d5 3c3a f12a d53b 1e16 cd3a 78c5 c3ba
00000200: f2da 993b a203 823b edee e93a 7a6a fdba
00000210: d0cb f53a cd9a ae3b 6779 963b f80c a5ba
00000220: d2eb 33bb 4a03 3aba 4f81 e23a 21ed f43b
00000230: 48b2 bdb9 7b50 983b 3320 ec3b 64bb e33a
00000240: 0240 b13b b84d 053c 0d6b ee3b ae43 923b
00000250: bb3a 823b 963b 673b 8ea3 233c 11f9 173c
00000260: 259f 013c 8ffc 683a 1dcf a03b 1ace 0a3a
00000270: d107 803b 1585 0b3c f9ea 1c3b 9458 d33b
00000280: 40fb 413b b3e9 df3b b6db 113c 435e 183a
00000290: ba59 0c3c 6dbe e3ba bba4 e939 cec3 e43b
000002a0: 8a66 f43b 8dac 3e3a 0013 093c 16aa eb3b
000002b0: d504 bf3b f278 10bb 83a4 a83a dbef a03b
000002c0: 1283 373a c402 1f3c aee8 113b 42f5 5bbb
000002d0: 10e5 133c f24a b43b 4957 bc3b 1a13 133c
000002e0: 0ffa 0dbb 5ca5 b1ba b4ac 1d3c d4ed 003b
000002f0: dd6a 3f39 3b90 9e3b dc15 51ba 889e f73b
00000300: e5e1 0d3c 686d 993b c2b8 c73b 48a2 4cbb
00000310: a4e0 e53b 98e0 c43b 7635 f13b b478 fb3a
00000320: e799 cf3b 5d7a ff3b cd47 1b3c d96a 203c
00000330: 7320 c43b 094a cd3b c2d1 7c3b 96d5 5e3b
00000340: f81f 543a 5b90 113c 8da1 c13b 9df9 d13a
00000350: 6d44 b83a 6f69 fa3b 8ea7 e53b 9c97 1b3c
00000360: 0876 d639 9c27 e63b b18b 063c 712c 5e3b
00000370: a2b8 693b 70ad abba 023e 64ba 2c8b 083c
00000380: 1e1f fe3b 6b89 6a3b 292c 183c e6cd 693b
00000390: 6125 b63b 29fc b5b9 a3d7 3e3b 1f8c 123b
000003a0: 3ee5 c93b 693a b63b c7ef 313c 897e 953b
000003b0: 7cca b43a 7264 c93b e323 d9b9 bd40 5d3b
000003c0: 7126 b83b 6a72 ffb9 ddcd 9038 2aa2 8e39
000003d0: 1b79 ec3b ae5a f13b 99dc b33b 6f3f 5f3b
000003e0: c6ec 54bb 0ff0 86bb 283c 6fbb adfa b33b
000003f0: 7a10 993b e25f 7cba b76f 953a 9da8 a9b8

fc1.bias f4 [2]
0.0068555614 -0.0053642034
00000000: 9ea4 e03b 33c6 afbb
